Cap13/modelo_dsa_mp7.pth (torch, 252085 bytes, 10 tensors)

conv1.weight f4 [6, 3, 5, 5]
000000 19 04 1b bc da 1c 84 bd d2 eb c6 3d 98 66 5f 3d
       -0.009461426 -0.064508155 0.09712948 0.0545412
000010 3e 03 e4 bd aa f0 f9 3d c8 79 67 3d 70 10 37 3e
       -0.11133431 0.12204106 0.056512624 0.17877364
000020 92 20 96 3d 45 b9 ee 3c ea ba 69 3d 4f 6e e7 bd
       0.07330431 0.029141078 0.05706302 -0.113003366
000030 a4 90 7c 3e c3 34 87 3e 05 84 e3 bd bd 9c ee 3c
       0.24664551 0.26407441 -0.11109165 0.029127473
000040 5d 51 9a be 5a 41 f8 3d fd 68 9b 3e 37 6e 34 3d
       -0.301402 0.1212184 0.30353537 0.04405042
000050 23 8c ec 3b 44 6b b6 be 97 00 0c be c3 10 d0 3b
       0.007218854 -0.35628712 -0.136721 0.0063496544
000060 f9 a1 8e 3c 40 02 2a bd f2 c1 bd bd e2 00 8a 3c
       0.017411219 -0.041506052 -0.09265508 0.016846124
000070 6e b4 06 bc d5 78 7d bd 83 d4 e1 bd 2f a3 97 be
       -0.008221729 -0.061882813 -0.110268615 -0.29616687
000080 c2 10 d7 3d f5 a9 35 3b 41 23 50 bd fb 4c 24 be
       0.10501243 0.002771971 -0.05081487 -0.1604499
000090 91 f2 3a be d0 b1 1b 3e 3a c2 07 3e 60 36 0b be
       -0.18256594 0.15204549 0.13257685 -0.13594961
0000a0 57 fa 05 be 9d 18 b7 be 5a d1 45 3e 62 a0 b4 3e
       -0.13083778 -0.35760966 0.19318143 0.35278612
0000b0 f8 51 fd 3d b7 bf 0d 3e ce 3a bd be d4 9d 23 be
       0.1236915 0.13842665 -0.36958927 -0.15978175
0000c0 e1 8b 22 3e 45 c8 06 bc 6d 51 8a 3d a1 01 de 3a
       0.15873672 -0.008226459 0.06753812 0.0016937741
0000d0 13 74 1c 3d 19 65 ee 3d c6 4e a2 bc f6 fd c8 bd
       0.038196635 0.116403766 -0.019812953 -0.09814064
0000e0 b1 d4 75 bd 5b 77 17 3e 96 9c 56 3c 8d 71 2e be
       -0.06001729 0.14791624 0.013098856 -0.17035504
0000f0 3e f6 a5 bc a1 6e b1 bd ab f5 08 3e b3 11 97 3d
       -0.020259019 -0.08663679 0.13374965 0.07376423
000100 78 99 3b be 61 25 06 bd 54 bf 57 be 5c d9 18 3e
       -0.18320262 -0.03275049 -0.2106908 0.14926666
000110 6e c0 45 3e 68 17 22 3d 21 49 7d 3e 3c 06 f6 bd
       0.19311687 0.039573103 0.24734928 -0.12012908
000120 80 43 85 bd 67 66 c1 3d d2 00 ee bc c9 f2 e1 bc
       -0.06507015 0.0944336 -0.029053126 -0.02758159
000130 ac 2c 36 bd b0 27 45 3d b7 5e a6 bd 05 d3 eb bc
       -0.044476196 0.048133552 -0.08123534 -0.028787145
000140 bb 55 34 bd d1 67 02 be 09 fa e1 bd 5c bf 2b be
       -0.04402707 -0.12734915 -0.110340185 -0.16772217
000150 d6 6c af b9 3e 2e 9e 3d 6c 5e 60 3c 09 39 65 bd
       -0.0003345969 0.07723664 0.013694387 -0.055962596
000160 87 57 38 be db 94 0b bd 28 cd 6c be a8 8d 27 be
       -0.18002139 -0.034077507 -0.23125136 -0.16362631
000170 db 48 5a be b6 ec bb bc 28 bd 52 be 3d 98 25 be
       -0.21316855 -0.022940021 -0.2057997 -0.16171356
000180 0e b0 bf bc 88 08 d1 bd 5f c1 9e bd 87 73 67 bc
       -0.02339938 -0.10206705 -0.07751726 -0.014126665
000190 77 73 6a bd 24 b6 5e 3d 43 24 14 3d e5 14 d5 3d
       -0.057239022 0.05437292 0.036167394 0.10404376
0001a0 53 83 40 bc 48 67 49 bc 5d 82 53 bc 50 83 a0 bd
       -0.01175006 -0.012292691 -0.012909499 -0.07837546
0001b0 0a ff e0 3d 07 43 e5 3c 72 6c 66 3d 14 bc 51 3d
       0.10986145 0.027986063 0.056255765 0.051204756
0001c0 79 e6 0c 3e b4 1b 49 3e c5 14 14 3c 9e 65 89 bc
       0.13759793 0.19639474 0.009038155 -0.016772088
0001d0 5b 3f 97 3d 53 8d 07 bc 16 5d 92 3d 21 09 a1 bc
       0.07385131 -0.00827344 0.07146661 -0.019657673
0001e0 3c 46 8e bd 44 d1 8e bd 8a be 47 3d d5 7b ef bd
       -0.0694699 -0.06973508 0.048765697 -0.11693541
0001f0 1f b3 79 bc 0b cd 04 bd 79 d7 a3 bc fd 85 a0 bd
       -0.01524046 -0.032422107 -0.020000206 -0.07838056
000200 68 fd 1e 3d 29 28 97 bd 1e fd 3d 3d 7e 7a bf 3c
       0.038815886 -0.07380707 0.04638397 0.023373839
000210 ac 4e 3f 3d 7f 2a e2 3d d2 7f 7f 3d dd 8e ae 3d
       0.046705887 0.11043262 0.06237776 0.08523343
000220 86 57 5f 3e d8 4f 4f 3e a0 ff da 3d 79 f1 44 3d
       0.21810731 0.20245302 0.10693288 0.04808185
000230 69 5b 88 3b e4 39 2b 3e a0 4a 9c 3d e3 13 c7 3d
       0.0041612876 0.16721302 0.07631421 0.0972059
000240 ab 46 96 3d 0e a7 0a 3e d9 cd a1 ba c0 8d 77 3d
       0.073376976 0.13540289 -0.0012344673 0.060437918
000250 3e 3e 13 3e 02 a9 30 bd 95 34 ac 3d 24 ac 68 bd
       0.14379212 -0.04312993 0.08408467 -0.05680479
000260 ce 4d 77 3d a8 e7 cf bd 20 1a 0b bc 14 c2 8d 3d
       0.060376935 -0.10151607 -0.008490115 0.06921783
000270 32 0d 1c bd ab 31 4f be 1c cf ea bd ef 69 43 3e
       -0.03809852 -0.2023379 -0.11465284 0.19083379
000280 bd 6c a5 3d 92 18 90 be 31 6e fc bd 4a 73 61 3e
       0.08077381 -0.28143746 -0.12325705 0.22016636
000290 04 74 80 3d a3 8b 08 be 91 7a 92 be aa d3 89 3e
       0.06272128 -0.13334517 -0.28609136 0.269193
0002a0 59 bc 4e 3e 2c cb e6 bd 80 c5 9b bc 94 25 61 3d
       0.20189036 -0.11269221 -0.019015074 0.054967478
0002b0 d1 71 7f 3e e1 de 17 be 39 7c de bd 42 38 5f 3d
       0.24945761 -0.14831115 -0.10863537 0.05449701
0002c0 4d 9a d1 3c b7 45 98 bc 1d d9 75 bd 90 d3 1c bd
       0.025586272 -0.01858793 -0.06002151 -0.0382877
0002d0 ae 3f 02 3e 30 81 cf bc 91 29 da bc 07 ee d3 bd
       0.12719604 -0.025330156 -0.026631149 -0.103481345
0002e0 bc 65 4e 3e bc f1 f8 3d e9 c2 e6 bd 7f 7f 54 3b
       0.20155996 0.12155482 -0.11267645 0.0032424626
0002f0 b2 3a 52 3c 87 2e 0d 3e 86 b6 c5 bd 9c fa 53 be
       0.012831377 0.1378728 -0.09653954 -0.20701069
000300 0c 4c 28 3e 9e c3 6b 3e b4 53 77 be 02 1a 82 bc
       0.1643526 0.23023841 -0.24153024 -0.015881542
000310 a9 4f 8e bd e1 0d 50 3e 25 a0 96 3b 26 be 04 be
       -0.06948788 0.20317794 0.0045967274 -0.12963161
000320 b7 84 a0 bc 11 ad 26 bd 30 e9 9b bd cf 62 92 bc
       -0.019594533 -0.040692393 -0.07612836 -0.017869381
000330 94 ee 0d 3d 12 fb b8 3c 5b cf 83 bd ab 8c 1b be
       0.034651354 0.022580657 -0.06436034 -0.1519038
000340 48 4c 06 bd 85 48 e8 3d 7b 27 81 3c 4f 10 82 be
       -0.03278759 0.11341957 0.015765896 -0.25403067
000350 95 60 1f bd f1 0e e0 3d 82 46 a8 3c a0 fc 4f 3c
       -0.038910467 0.1094035 0.020541433 0.012694508
000360 a5 d4 2f be 43 88 7c 3e 4f c2 17 3e b5 cb 83 3b
       -0.17170961 0.24661355 0.14820217 0.0040220865
000370 d5 48 d8 bc aa d8 50 3c 15 88 58 3e b6 85 b6 bd
       -0.026401917 0.012746969 0.21145661 -0.08912222
000380 33 bf d1 bc 9b 87 8e 3d 28 74 5d bd ac 2b f2 bd
       -0.025603866 0.069594584 -0.054065853 -0.11824736
000390 98 ff 1c 3d c6 fc e4 bd 79 dd 78 bd 73 cf ab be
       0.03832969 -0.11181025 -0.060758088 -0.3355671
0003a0 98 48 a1 be cc a7 60 be 6d 9e 99 bd 89 e2 80 3d
       -0.31500697 -0.2193901 -0.075009204 0.06293208
0003b0 f6 44 79 3c 31 db 02 3e 9a ab d4 3d ab 54 cc 3d
       0.0152141955 0.12778927 0.10384293 0.09977087
0003c0 f0 1a eb 3d 48 5a 90 3e d1 7a 91 3e 67 f1 32 3e
       0.11479747 0.2819388 0.28414014 0.174749
0003d0 0c 15 74 38 ce 94 61 bd c0 f0 f9 3b e8 e8 bf bd
       5.8193735e-05 -0.05507355 0.0076275766 -0.09370595
0003e0 6b be 87 bc 0c 4c 88 3d d4 56 b1 3d be 6c f2 3d
       -0.01657029 0.0665513 0.08659139 0.11837147
0003f0 cf 4b a7 3d df 43 da bd 31 13 79 3c 79 21 26 be
       0.08168756 -0.10657477 0.0152023295 -0.16223706

conv1.bias f4 [6]
000000 ba 2c 8d bc 63 67 58 3e 94 95 cb 3b 46 13 a5 bd
       -0.017233241 0.21133189 0.0062128995 -0.08060317
000010 a3 7b 18 3d b6 67 e6 bd
       0.037227284 -0.1125025

conv2.weight f4 [16, 6, 5, 5]
000000 40 f6 ed 3c 50 f6 10 3d b2 16 bb 3d e6 c2 bc 3d
       0.029048085 0.035391152 0.09135188 0.092168614
000010 8b f2 c0 3d 35 7f 29 3e ac 94 1d 3e 39 b0 76 3d
       0.094212614 0.16552432 0.15388745 0.060226653
000020 b1 fa f0 3c 79 a7 cb 3d 66 1f dd 3d 26 95 79 bc
       0.029416414 0.09944052 0.107970044 -0.015233314
000030 46 34 8a bd 09 26 96 bb 0f 32 e3 3d fe ea 77 3d
       -0.067482516 -0.004582171 0.11093532 0.06052684
000040 e6 b5 89 bd 16 a3 1f be d4 20 4d be 1d 1f 24 be
       -0.067241475 -0.15589556 -0.20032054 -0.16027494
000050 20 20 88 bb cb f9 87 3d b3 42 18 bd 18 52 55 3d
       -0.00415422 0.06639441 -0.037172984 0.052080244
000060 72 02 78 3c cb 26 44 3d 7e 37 7d bc 01 b0 3a bc
       0.015137302 0.04788856 -0.015455125 -0.011394502
000070 a4 73 1c 3d a4 03 b4 3b 00 30 8f 3c 10 ee 4e bd
       0.03819622 0.005493598 0.017478943 -0.050520003
000080 84 58 16 bc 5f e3 b2 3d 50 41 7d 3d 4c 7c ec 3d
       -0.009176377 0.08734774 0.061829865 0.11547145
000090 1d 2d 07 3e fc a3 05 3e 86 ad dc 3c 0a a9 0f bd
       0.13200803 0.13050836 0.026938211 -0.035073318
0000a0 91 f2 a1 3d e9 b1 34 3d ff a7 ed bc 3e a8 7d bd
       0.07907594 0.04411498 -0.02901077 -0.061928026
0000b0 48 8c 66 bb bf 0b 40 3e b3 94 a2 3c be c9 16 3e
       -0.003517883 0.18754481 0.019846296 0.14725396
0000c0 a6 e5 5d 3d c7 03 a5 3d 01 3d b0 bd 69 05 27 be
       0.054174088 0.08057361 -0.086053856 -0.16310658
0000d0 63 66 55 be 81 f0 3d bd 00 cf 5f bd 29 2b aa bd
       -0.20839839 -0.04637194 -0.05464077 -0.083090134
0000e0 7f a5 66 be 4d 40 89 be 56 97 33 be e8 3c 22 3d
       -0.22524069 -0.2680687 -0.17538199 0.039608866
0000f0 25 b8 06 be 58 eb 96 be e6 ef a1 be ec 74 4d be
       -0.13156183 -0.29476428 -0.3162834 -0.20064133
000100 d4 55 55 bd 0d 0f 3b be 74 1e 6c be b2 40 ad be
       -0.052083805 -0.1826746 -0.23058492 -0.3383842
000110 3f 24 5e be 5e b5 c9 ba cb 89 1d bd ca a3 13 be
       -0.21693514 -0.0015389135 -0.038461488 -0.1441795
000120 bf fa 4d be 3c 5a 86 be 93 d5 06 be 90 ce 8d 3d
       -0.20115183 -0.26240718 -0.1316741 0.06924164
000130 4e a0 fa 3d 62 b5 03 3e cf b7 d8 3d 0e a2 34 3e
       0.12237607 0.12862161 0.10581934 0.17639944
000140 ec e7 3c 3e af fe 12 3e 98 01 1e bd 58 11 96 3b
       0.18447846 0.14354967 -0.03857574 0.0045797043
000150 ed d7 d7 3d c8 f5 92 bc bc 12 bd 3c 53 d9 32 3d
       0.105392314 -0.017939463 0.023080222 0.043664288
000160 a4 bc ef 3c d8 1a f5 3d 64 85 27 3c e6 c9 2c 3d
       0.029264756 0.11968011 0.010224674 0.042184733
000170 4d b9 17 3e ba 91 5c 3d 47 cc 1c 3e 2e 05 7a bd
       0.1481678 0.053849913 0.153123 -0.061040096
000180 ff 27 b9 3d 85 c5 eb 3d 4a 40 2e 3e 3d 74 93 3d
       0.09040832 0.11512283 0.17016712 0.07199905
000190 0e a2 e3 bb 81 61 d9 bd c8 d2 95 3c 5f d6 b0 3d
       -0.0069468087 -0.106143005 0.018288985 0.08634638
0001a0 66 bc f4 3d d4 c0 ee bc fc 39 eb bd 00 5b 9c bd
       0.11949997 -0.029144682 -0.11485669 -0.076345444
0001b0 99 a9 3c 3d 90 fb e1 ba 81 98 25 bc 26 d5 e4 bc
       0.04606018 -0.0017241109 -0.010107161 -0.027933668
0001c0 33 3a 31 be 3d e8 58 3d dd 36 d4 3d fa 65 e3 bd
       -0.17307357 0.052955855 0.10362027 -0.11103435
0001d0 29 c9 9e bd fd 23 55 bc 01 66 48 3c cc 43 2e 3e
       -0.07753212 -0.013009069 0.012231351 0.1701805
0001e0 b7 e6 56 be f1 70 cb bd 42 6a 5c 3b 26 cc 2e 3d
       -0.20986448 -0.09933651 0.003363267 0.04267516
0001f0 9c 31 06 ba 43 77 9b 3d 35 98 98 bd a3 bd 00 be
       -0.00051190867 0.07591107 -0.07450906 -0.1257234
000200 b8 fa eb bd 37 01 a7 bd b9 8f 4f 3e 74 a7 66 3d
       -0.1152243 -0.081545286 0.2026967 0.05631204
000210 09 33 1f 3c 72 fe 90 bd 6d f3 ed ba 3d f4 b7 3d
       0.009716758 -0.070797816 -0.0018154212 0.08982132
000220 b2 8d 20 ba e1 a4 15 3d 45 30 a0 3d fd bc db 3d
       -0.000612463 0.036534194 0.07821707 0.10729406
000230 7d f8 8b 3d 49 67 15 bd 8a 7b f6 bd f9 2b 4c bc
       0.06834505 -0.036475454 -0.12035282 -0.012461656
000240 26 4b 98 bd d7 76 f9 3d 7b 66 b4 3d 97 48 e1 3c
       -0.074362084 0.1218087 0.08808609 0.027500434
000250 05 f7 90 3c fb ad 05 bd 11 a5 1f 3c a1 91 93 3d
       0.017695913 -0.032636624 0.009743945 0.07205511
000260 41 59 46 bc e6 47 1b bd 33 a2 9e bd a0 a9 4a 3c
       -0.012106241 -0.037910365 -0.07745781 0.012369543
000270 76 a5 bd bd 32 7b a1 bd a4 35 ac bc 07 be 44 bc
       -0.09260075 -0.07884826 -0.021021672 -0.012008197
000280 c5 78 0b 3d 35 8c ca bc 77 7e db bd d0 48 0f bd
       0.03405072 -0.024725059 -0.10717481 -0.03498155
000290 01 bd 6a bd 82 b3 1e bd 7a 7f ff bc 10 d9 4b 3a
       -0.057309154 -0.03874541 -0.031188715 0.000777618
0002a0 20 70 ba bd 22 be b3 bc 5b 75 8b be 7c 02 97 be
       -0.091034174 -0.021941248 -0.27237973 -0.29494083
0002b0 96 ae 46 be 03 0f 23 be 8f 40 ef bd 46 61 1b be
       -0.19402537 -0.15923695 -0.116822354 -0.15173826
0002c0 b4 ca a2 3d 7e 49 ba 3d 93 0c e6 3d 56 ec a1 bd
       0.07948819 0.09096049 0.11232867 -0.07906406
0002d0 ea ed d0 3a fa b5 1c 3a 11 16 17 bd fe d4 6b bd
       0.0015940045 0.00059780444 -0.03688628 -0.057576172
0002e0 9e 6a 5e 3c cb 21 0a 3d 54 48 0e 3e 9f ad 8c 3c
       0.013575224 0.033723634 0.13894778 0.017172633
0002f0 ca ec 5f bd a9 a6 23 bd 8d e1 6a be 13 a8 ca bd
       -0.05466918 -0.03995386 -0.22937603 -0.09895339
000300 be d7 33 3d 06 22 d3 bd 60 d6 b8 bc 2e 77 a9 bd
       0.04390692 -0.10309224 -0.02256316 -0.08274685
000310 40 1f 00 3d a9 14 63 bc 8e b4 32 bc 3c 88 62 bc
       0.031279802 -0.013859906 -0.010907305 -0.013826426
000320 1c 3d c9 3e 56 af e6 3e c2 27 c4 3e a2 cd 3a 3e
       0.39304435 0.45055646 0.38311583 0.18242505
000330 6f e4 5e 3e 53 69 be 3e 02 87 16 bd 7f 77 fd 3d
       0.21766828 0.3718973 -0.036749847 0.12376308
000340 99 2d 91 3e 65 a5 fd bc 36 dc 94 bc 53 cb 9d bc
       0.283551 -0.030962655 -0.018171411 -0.019261992
000350 55 74 18 3e 54 7b 1d 3d a8 0a 01 3e 23 75 f8 bd
       0.14888127 0.038447693 0.12601721 -0.12131717
000360 54 4c c4 3d 77 eb 99 b9 b5 8b 43 bc 0e d6 de 3d
       0.09584871 -0.0002935787 -0.011935164 0.108806714
000370 7e a9 81 be 3d ca 96 be 62 51 6d be 6c bb 19 be
       -0.25324625 -0.2945117 -0.23175576 -0.15012902
000380 5a fa 45 bd 0a 00 07 3e 23 4a a1 3d 2d 05 00 3e
       -0.048334457 0.13183609 0.078754686 0.12501974
000390 ef b6 98 3d 52 43 5c 3d 93 9e 8f 3d 61 79 76 bc
       0.07456767 0.05377514 0.070126675 -0.015043587
0003a0 ae 37 93 3d eb e5 0c bd b6 58 20 bd 4d 05 2c 3d
       0.071883544 -0.034398954 -0.0391471 0.041997243
0003b0 87 9e 2d 3d fc f8 a4 3d 64 56 58 3d 18 4a 52 ba
       0.04238751 0.080553025 0.052816764 -0.0008021905
0003c0 4b 77 e8 bb 31 b6 7e 3d 08 17 08 3e a8 97 f1 3c
       -0.007094299 0.06218547 0.13290036 0.02949126
0003d0 c3 79 8d 3c 50 5b 86 3d 6d 42 0b 3c 7d 4c ed bb
       0.017269975 0.06560385 0.008499724 -0.007241784
0003e0 16 df 5d 3c d4 fb 20 3d 17 d0 9d bd eb 62 54 3c
       0.013541957 0.039302662 -0.077057056 0.012963037
0003f0 36 34 93 3d 98 e6 6c 3c 2a 78 f9 bb 49 6b 72 3c
       0.07187693 0.014459275 -0.0076132016 0.014796087

conv2.bias f4 [16]
000000 c5 5b 61 bc 95 c7 48 3e ab 0c c3 bc 44 8d e0 3d
       -0.01375479 0.19607385 -0.023809751 0.10964444
000010 0c 99 92 3e 3a 41 82 be d1 10 9c be dc 01 65 bd
       0.2863239 -0.2544039 -0.3048158 -0.055909976
000020 d6 11 99 3e 53 10 85 3e 5a 3e 87 be bf a3 83 3e
       0.2989642 0.25989017 -0.26414758 0.25710866
000030 f7 84 89 be df 14 50 3e b6 63 d1 bd b4 51 11 3e
       -0.26859257 0.20320462 -0.102240965 0.14191324

fc1.weight f4 [120, 400]
000000 d6 0e aa 3d 72 53 99 3c 3a ed 9d 3d 2b 2a 02 3d
       0.08303611 0.018716548 0.07711263 0.031778496
000010 27 d4 38 3e 83 47 5d bd 02 f0 95 bd 0b 6d 81 bc
       0.1804968 -0.054023277 -0.073211685 -0.015799066
000020 15 87 81 3d c8 bb 97 3d e0 dd 43 3d 93 a3 20 3e
       0.06324593 0.07408863 0.04781902 0.15687399
000030 7c 14 5a 3e e5 59 11 3d ea 2e 0d 3e 4d 70 f5 3a
       0.21296877 0.03548612 0.13787428 0.0018725485
000040 a7 04 49 3d 3b e4 8e bc 86 c4 bb bc fb 6f 4d 3e
       0.049076702 -0.017442813 -0.022920858 0.20062248
000050 36 f4 ae 3c f9 39 10 3d 02 6f c7 3d 0a 78 16 3d
       0.021356683 0.035211537 0.0973797 0.036735572
000060 2e c1 d0 3d e5 c8 71 3e 73 00 ab 3d db f9 4b 3e
       0.10193096 0.23611791 0.08349695 0.19919531
000070 0e 0c a3 3d 93 45 37 3d a3 c2 f6 3d 3d c9 00 3e
       0.079612836 0.044744086 0.12048843 0.12576766
000080 bc ad 39 3d f6 37 51 3d 4d 2f 50 3c 06 94 07 3e
       0.0453317 0.05107876 0.01270659 0.1324006
000090 ec 57 14 3e 27 18 24 3e 64 82 64 bc a0 1f ed 3d
       0.14486665 0.16024838 -0.013947103 0.115782976
0000a0 b1 dc 3b 3c 9a af ef bc 45 92 52 bc b4 b3 e1 39
       0.011466191 -0.029258538 -0.012852256 0.00043049233
0000b0 f3 b1 d7 3d 74 44 2c 3c bf c7 94 bd 22 b3 f1 3d
       0.10531988 0.010514367 -0.07264661 0.11801745
0000c0 52 e0 89 3d b5 ac ab 3b 8d 53 82 3d d5 c3 11 3d
       0.06732239 0.005239094 0.06363592 0.03558715
0000d0 b3 5a 71 bd 7c b9 9a bd 3a fc 30 3c e3 14 19 3e
       -0.05892439 -0.075549096 0.010802323 0.14949374
0000e0 ab f0 8a bd 9e f4 cb bd 70 3d 88 3d cc d1 11 bc
       -0.06784185 -0.099587664 0.06652343 -0.008900117
0000f0 46 ca a2 3d ec 76 bf bd 27 29 c6 bd b8 3a 70 bd
       0.07948737 -0.093488544 -0.09675818 -0.05864975
000100 44 37 29 be 43 d4 62 bd 1a 0d 1d bc b0 51 9d bd
       -0.16524988 -0.05537821 -0.009585643 -0.07681596
000110 4d eb df bd e1 97 fe bd f0 fd d4 bd fc 04 90 3a
       -0.10933552 -0.12431312 -0.10399997 0.0010987814
000120 18 7b b5 bc 22 fe 52 bc 2a 4f 5e bd 44 f6 76 3d
       -0.022153422 -0.012877973 -0.054274715 0.06029345
000130 9a 01 a0 3c e9 a9 0f bc 40 1d 8c 3c 4a 93 88 bd
       0.019532014 -0.008768537 0.017103791 -0.06668718
000140 0b 78 ea bb 46 2a 8a bb eb 33 4c bd d5 67 98 bd
       -0.0071554235 -0.004216465 -0.0498542 -0.074416794
000150 c8 ed 0a bd d9 c7 7c bd f6 ad 90 bd b7 40 b4 3c
       -0.033918172 -0.061714027 -0.070644304 0.022003515
000160 a8 78 5e bc c4 c9 72 3d a8 fa 12 bd 45 39 25 be
       -0.013578571 0.05927445 -0.035883576 -0.16135128
000170 f3 15 08 3d 84 47 92 bd a0 3a e0 3d 02 4c 60 3d
       0.033224057 -0.07142547 0.10948682 0.054759987
000180 d6 83 24 3d 2d b2 79 bd ac eb e4 bd cb 0e f8 3c
       0.04016479 -0.060960937 -0.11177763 0.030280491
000190 c0 c7 33 3c 2a f4 56 bd 39 57 0e 3d 5e 3b 56 3c
       0.010972917 -0.052478947 0.03475115 0.013075678
0001a0 7e 5e c5 3d b9 a6 97 3d 8d 8a d5 3c b8 b5 64 bd
       0.096371636 0.07404847 0.026067043 -0.055837363
0001b0 85 02 89 bc e1 7a f5 bb e7 dc b0 3d ca 9f 6b bd
       -0.016724834 -0.007491455 0.08635884 -0.057525434
0001c0 14 56 fd bd 4c 0b ec bd 88 74 94 bd 87 df 2c bd
       -0.12369934 -0.11525592 -0.07248789 -0.04220536
0001d0 ed 45 a8 bd 9a 6c 52 bd 1a 81 8d bd d5 cb ba bd
       -0.08216462 -0.0513731 -0.0690939 -0.09120909
0001e0 06 d2 e2 bd f8 a3 0d bd 19 29 53 bd 60 f6 3b be
       -0.11075215 -0.0345802 -0.051552866 -0.18355703
0001f0 20 ca 0f be 5a d0 09 bb f0 29 c1 bd 72 ee e5 bd
       -0.14041948 -0.0021028728 -0.09431827 -0.112271205
000200 a0 a4 1e 3e ca 64 71 3d 06 52 d1 3d 92 9e 99 3c
       0.15492487 0.05893401 0.10220723 0.01875237
000210 51 b0 30 be 00 2e a9 bb c8 56 02 3e 02 2c 4a bd
       -0.1725476 -0.0051629543 0.12728417 -0.049358375
000220 0b 1c 14 bd 70 99 44 3d 08 28 30 be 8c 8c ca 3c
       -0.036159556 0.047997892 -0.1720277 0.024725221
000230 f9 5a 63 be 2c e8 04 be b5 ae 44 bd 68 31 24 be
       -0.22202672 -0.12979192 -0.048018176 -0.16034472
000240 cc 07 60 bc ac f9 a3 3b 5f 18 e1 3d b8 30 80 3d
       -0.013673734 0.0050041284 0.109909765 0.06259292
000250 9a 18 7e ba dc 5d ec 3d 6e 3d 30 3c 4b e4 55 3e
       -0.0009692997 0.1154134 0.0107568335 0.20887868
000260 a1 26 18 3e 85 5f cf 3c 0f 04 81 3d 23 54 1a bc
       0.14858486 0.025314102 0.06299602 -0.009419474
000270 55 ec 64 3d 27 e5 63 3c c6 ac 02 bd 8d 95 08 3e
       0.055889446 0.013909615 -0.03190305 0.13338299
000280 c7 0c c2 3d 08 bf 6e 3e ac 55 55 3e c2 dc 89 3d
       0.09475093 0.2331506 0.20833462 0.06731559
000290 4f 79 59 3e de f3 72 3d cc 34 b3 3d 7a 1f c7 3c
       0.21237682 0.0593146 0.087503046 0.024307001
0002a0 86 b0 b5 bc 70 a2 10 3e 77 3a 4b be 1c f5 52 be
       -0.0221789 0.14124465 -0.19846521 -0.20601314
0002b0 2b b9 e0 bd 18 8d 3e be 15 66 a4 bd df 78 06 3e
       -0.10972818 -0.1860851 -0.08027283 0.13132046
0002c0 a7 9b 45 3d b8 41 c3 bc 5a 01 aa 3d 57 d8 30 3e
       0.048244145 -0.023835048 0.08301039 0.17270027
0002d0 9a 3c 6b 3e 54 18 18 3e 3e 44 11 3e 16 c7 f5 3d
       0.22972336 0.1485303 0.14186189 0.12000863
0002e0 d3 61 ac 3c 99 86 14 3e 09 ff c7 3c ae 0d 96 3d
       0.02104274 0.1450447 0.024413602 0.07326828
0002f0 33 88 64 bd 20 a9 ae bb 30 db 29 bd e1 ca 89 bd
       -0.055793952 -0.00533022 -0.0414688 -0.06728149
000300 93 2c 1d bd 00 59 da bd 1d 2e 6d 3d 22 57 92 3d
       -0.038372587 -0.10661507 0.057905305 0.071455255
000310 33 9e a2 3c 5f a8 ad 3d 9e b5 12 3d 69 7b a2 3d
       0.019850826 0.0847938 0.035817735 0.07933695
000320 2c 71 81 3c df ce 5c bd 3a 7a 31 be 40 94 f3 3b
       0.015801035 -0.053908225 -0.17331782 0.0074334443
000330 75 31 2e be 3c 4a d4 bd 58 81 92 bc a8 b7 30 3d
       -0.17011054 -0.103657216 -0.017883942 0.0431439
000340 96 97 e4 bc 0c 20 80 bd 2b ea a3 bd 1a 88 e9 bd
       -0.027904313 -0.062561125 -0.08003648 -0.114029124
000350 b5 68 2c 3d 5e ef 13 3e 93 de e7 3c d6 53 c6 3c
       0.042092044 0.1444678 0.028304374 0.024209898
000360 16 cd d3 bd e2 2c 18 3d 47 8a 1f 3e 70 e8 c8 3c
       -0.103418514 0.03715218 0.15580092 0.024524897
000370 a9 47 78 3d b2 9b 06 3d 9a 11 3d 3d fc 6a 28 3e
       0.060615215 0.032863326 0.046159364 0.16447061
000380 80 fc e4 bc 7c ec 50 bd 86 d8 68 3d b6 03 1c bd
       -0.027952433 -0.05100678 0.056847118 -0.038089477
000390 87 c5 8c bd f0 cf 1f be ea 5e d8 3c 53 a5 1a bd
       -0.06873613 -0.15606666 0.026412446 -0.03775532
0003a0 30 0e ea 3c 70 f6 9d 3d b3 a8 19 be 71 24 24 3d
       0.028571218 0.0771302 -0.1500576 0.040073816
0003b0 7c 59 90 be ae f9 1e be 1a 64 72 bd 62 80 5e bd
       -0.2819327 -0.15524933 -0.059177496 -0.054321654
0003c0 92 b3 b1 bb 9e 8c c7 3d 25 3a 92 be 20 42 17 3d
       -0.005423018 0.097436175 -0.28559986 0.036928296
0003d0 8f bd 83 bb 34 19 9e 3d dd e0 37 3d 52 40 0d be
       -0.0040204 0.07719651 0.04489218 -0.13794068
0003e0 ef 60 10 be ff 3b 0f bd 3e f6 02 bd b3 e0 3c be
       -0.14099477 -0.034969326 -0.031973116 -0.18445091
0003f0 97 7c 0d be e4 d0 c0 bd ca e2 51 3d 52 fe 84 bd
       -0.13817059 -0.09414843 0.051241674 -0.0649382

fc1.bias f4 [120]
000000 77 3e 6f 3e d2 2d 19 bd c7 b9 af 3e 78 03 95 3e
       0.23363672 -0.037397213 0.34321424 0.2910421
000010 94 36 bd 3d 50 ff 89 3e ac 90 9a 3e 75 2c eb 3d
       0.092389256 0.269526 0.301885 0.11483089
000020 fb 54 16 be 39 30 ec 3c 07 64 b1 3a b4 b1 e3 3d
       -0.14680855 0.028831588 0.0013533839 0.111178786
000030 b3 ff 07 bd 4a f4 9b 3e f7 43 c1 bc 51 1f 31 bd
       -0.03320284 0.30459815 -0.023591978 -0.043242756
000040 5b c0 b2 be 20 e7 73 3e d7 9a b1 3e 44 c9 32 bd
       -0.3491238 0.23818636 0.34688446 -0.043648973
000050 72 19 8a bd c3 1d 82 be 14 d8 0c bd ed 99 16 3e
       -0.067431346 -0.2541333 -0.034385756 0.14707156
000060 78 bd 5f 3d 38 08 ea 3d 25 15 df 3e 94 9d 18 bd
       0.05462405 0.11427349 0.4357082 -0.037259653
000070 28 16 20 bd 3b 35 71 bd 14 60 48 3e 42 23 94 bd
       -0.03908363 -0.058888655 0.19567901 -0.072332874
000080 2d dd 60 3e 7d 41 be 3e 56 50 70 bd 76 73 2c 3a
       0.21959372 0.3715934 -0.058670364 0.00065784843
000090 40 70 69 bd c7 f3 42 be 07 a4 42 be 63 af 23 3e
       -0.056991816 -0.19038306 -0.19007884 0.15984873
0000a0 23 af 60 bd a4 b4 b5 bd d6 b4 4c 3e 2f 1d f9 bd
       -0.054854523 -0.08872345 0.19990858 -0.121637695
0000b0 54 0c 4a bc 0d a9 5a 3e 57 01 85 bd aa 1e 40 3e
       -0.012332041 0.2135355 -0.06494396 0.18761697
0000c0 b2 b6 80 3e d9 64 b2 3e 99 c5 a1 3e 47 cb 91 3d
       0.25139385 0.34842566 0.31596068 0.0711885
0000d0 4e 38 5a 3d 2e 92 ce 3d 06 2b 8c bd 4d ed 82 3e
       0.053276353 0.10086475 -0.068441436 0.2557167
0000e0 f0 86 59 3c 4f 74 db bc 55 7e db 3d 12 f7 ba bc
       0.0132768005 -0.026788859 0.10717455 -0.02282289
0000f0 81 d5 30 3e ca da e6 bc f5 02 39 bd 86 88 a4 bc
       0.17268945 -0.028180499 -0.045168836 -0.02008463
000100 da 07 f8 3d cb 16 54 bc 4f d6 8b bd 9b 57 10 bd
       0.121108726 -0.012944887 -0.068279855 -0.035239797
000110 60 cd 31 bd 5b 16 28 be 5a 59 ca bb 84 ce 30 3b
       -0.04340875 -0.16414778 -0.0061752023 0.0026978562
000120 d9 87 0d 3e 92 06 31 3e ca 0c fb 3e ec c1 d7 bb
       0.13821353 0.17287663 0.49033195 -0.0065843966
000130 17 37 a1 3c 69 6d 83 bd 2e b6 2f be ee e7 4a bd
       0.01967959 -0.06417353 -0.1715934 -0.04953759
000140 8f 82 7e 3e 4d 92 bd 3d 78 af 00 3b e8 53 a3 bb
       0.24854492 0.0925642 0.0019635838 -0.0049843676
000150 0f c3 e0 bc c3 36 e6 bc 4b 4e 36 bd 13 06 b2 bd
       -0.027436761 -0.028102284 -0.04450826 -0.08692565
000160 4b cc 83 3e de ac 89 3e 91 33 64 be 79 da 73 bd
       0.257418 0.268897 -0.22285296 -0.059534524
000170 11 9e 8e bd 8a 6c 5c bd 21 71 2e be 8d 4c 0d 3e
       -0.069637425 -0.05381445 -0.17035343 0.13798733
000180 af 13 89 bc cf 1f bf bc d7 15 e6 bd 1f be ac bd
       -0.016733019 -0.023330597 -0.11234634 -0.084347
000190 48 14 e0 3b a0 a9 8a 3e c7 52 2d be bd cb 18 be
       0.006838355 0.2708254 -0.16926108 -0.1492147
0001a0 f1 bc 01 3e 51 cc ca 3d ce 4d 71 3e ca b2 96 3e
       0.12669732 0.099022515 0.23564836 0.2943328
0001b0 f5 97 9a 3d bb 5b 2f 3e af 81 f4 3e 05 bb c9 3a
       0.07548515 0.17124836 0.4775519 0.0015390819
0001c0 f2 4f 80 3d 1a 8f 32 bd 71 f9 58 bc 36 ed ac 3e
       0.06265248 -0.043593504 -0.013243065 0.33774728
0001d0 4f ee 1a be dd dd 92 38 02 41 b7 3e 1f 44 a3 3d
       -0.1512997 7.003148e-05 0.35791785 0.079719774

fc2.weight f4 [84, 120]
000000 87 17 4b 3c 45 dd 9c 3c 19 df 92 3d 3c 6c 61 bd
       0.012395746 0.019148478 0.07171459 -0.05503486
000010 bc d1 6d 3c 7e db d4 3d f9 d3 0a 3c 02 04 e9 bd
       0.014515337 0.10393427 0.00847339 -0.113777176
000020 10 2a f7 3c 98 25 90 3c 93 48 79 bd 9a 78 ba bc
       0.030171424 0.017596051 -0.060860228 -0.022762585
000030 04 10 91 bd fd b4 8e 3b 71 fc 91 3c e3 7b 88 bd
       -0.07083133 0.0043550716 0.017820569 -0.066642545
000040 c1 3b 76 bd 26 f6 15 bd 97 c6 91 3d 5d 12 fb 3d
       -0.06011558 -0.0366117 0.07117956 0.12259362
000050 c6 c7 f4 bc 6d bf 45 bd 0c fb a5 3d 71 11 a4 bd
       -0.029880416 -0.04827826 0.08104524 -0.08011139
000060 61 93 30 bc 92 75 3c 3d 48 97 83 bd 20 9c 36 3d
       -0.010777325 0.04601056 -0.06425339 0.044582486
000070 04 c6 1c 3d cd 1f 3f 3d 64 40 ec 3d d8 79 9b be
       0.03827478 0.046661187 0.11535719 -0.30366397
000080 96 4e 53 bd e0 bf 7e 3e 59 90 4b bc 11 ff fa bc
       -0.051588617 0.24877882 -0.012424552 -0.030639203
000090 16 dd 78 3d c0 1e 06 3e 2c a0 9e 3c b4 27 bb 3b
       0.06075772 0.13097668 0.019363485 0.00571152
0000a0 c5 ff a3 bd 36 c1 fd bd 78 7a c3 bd 38 c1 54 be
       -0.080077685 -0.12390368 -0.095448434 -0.20776832
0000b0 11 52 ad 3d 74 4b fd 3d 52 e7 8b 3d d1 91 b7 bd
       0.084629185 0.12367907 0.0683123 -0.08963359
0000c0 48 d9 71 3d e3 ca 69 3e 1c ac 90 3d c3 6e 5d 3e
       0.059045106 0.22831301 0.07064077 0.21624283
0000d0 95 6e d7 3d 9c 0c 23 3d 69 e7 3d bc 4b d1 65 bd
       0.10519139 0.039806947 -0.011590817 -0.0561078
0000e0 61 cb 08 bd 51 e5 8f bc 6c 6b 23 3d 6b 88 2b bd
       -0.033397082 -0.017565401 0.039897367 -0.041878145
0000f0 3d 1a 86 3d 6f 78 1e bd e8 3d 58 3d 37 d3 41 3d
       0.06547973 -0.038689073 0.052793413 0.04732057
000100 9b c2 1b be 59 7f 5a bc 5d 65 da bd 4f 59 da 3c
       -0.15210955 -0.013336026 -0.10663865 0.026653914
000110 96 8a 06 3e 94 49 02 be 88 0b b8 3d 09 95 8a 3d
       0.13138804 -0.1272338 0.089865744 0.067667075
000120 8a 72 6a bd c0 a2 28 bc ff de 76 3a 13 5a 87 bd
       -0.05723814 -0.010292709 0.0009417384 -0.06608977
000130 eb 46 cd bc b0 e8 0c bd 71 b6 94 3d 42 29 13 bd
       -0.02505823 -0.034401596 0.072613604 -0.03592802
000140 14 f7 4f 3e b7 1f b5 bd 49 57 b8 3c bb 5e 88 3c
       0.20309097 -0.0884394 0.022502558 0.016646734
000150 68 fb 66 bd da eb 6c 3c 2b db c6 3c 69 4c 85 3a
       -0.056392103 0.014460528 0.02427443 0.0010169867
000160 8e 4e 14 3e 50 0f 4c 3e e2 96 52 3d 15 79 28 3d
       0.14483091 0.19927716 0.051413424 0.041131098
000170 b4 c0 d1 3d 80 93 b1 bc 33 40 2e bd d8 31 9a bd
       0.10241833 -0.021676779 -0.042541694 -0.07529038
000180 f0 49 0f bd 1f 9b fb 3c 20 a3 a4 bc 62 3f fe bd
       -0.03498262 0.030713616 -0.020097315 -0.12414433
000190 ed f0 96 bc ae b4 da 3d af 8a 85 3b 59 57 0b bd
       -0.01842543 0.10678993 0.0040753703 -0.034018848
0001a0 b9 3b dc bd c4 21 98 bd 15 64 a5 3d 1e de c8 3d
       -0.10753579 -0.07428315 0.0807573 0.098079905
0001b0 43 94 24 3e 6c f6 a7 3e ec b5 5e bc a4 a8 2b be
       0.16072182 0.32805192 -0.013593178 -0.1676355
0001c0 f3 3f 96 3d 98 74 37 3d 02 c0 c6 3c 8d 2a c5 3d
       0.07336416 0.044788927 0.024261478 0.096272565
0001d0 e2 0d 7a 3c 36 4b c7 bc af 01 90 3d 4b 64 2a 3d
       0.015262099 -0.024327856 0.07031571 0.041599553
0001e0 0f bc aa bc 02 7d 69 3c f8 e9 0e 3c 3b c2 91 3e
       -0.020841626 0.014250996 0.008722775 0.284685
0001f0 4e a0 9d bb 8e 71 e8 3d 05 5c db 3d af 12 2a be
       -0.0048103696 0.11349784 0.10710911 -0.1660869
000200 68 7d 3b be 8e 4a 82 bd d2 5c fb 3c 11 1a 68 3d
       -0.18309557 -0.063618764 0.030683909 0.056665484
000210 d7 ad 5f 3e 7b b9 95 3d fd c9 f4 bb 66 86 27 be
       0.21843658 0.07310768 -0.007470368 -0.16359863
000220 58 f3 5c be 66 cb ab 3e 6b e5 a7 3e 04 dd 7c be
       -0.21577203 0.33553618 0.3279222 -0.24693686
000230 89 ac e6 bc 18 27 ac be 4b 95 1d 3d e2 c5 fd bb
       -0.028158443 -0.33623576 0.038472455 -0.0077445367
000240 e7 be 97 bd 7b 95 1b 3d 2a e7 d6 3d 71 21 72 bd
       -0.074094586 0.037984353 0.1049331 -0.059113923
000250 d6 28 0e bd 71 bb 27 3d 01 fb 80 3d f3 68 4a 3d
       -0.034706913 0.040950242 0.06297875 0.049416494
000260 a5 84 ee 3d de 36 e6 bd 25 7e 54 3d 7f a6 2f bd
       0.11646394 -0.11240934 0.051878113 -0.042883392
000270 d4 bd 4e bb 2b 04 ee bd 03 f7 37 bc 85 45 97 3d
       -0.0031546252 -0.11621889 -0.011228326 0.07386307
000280 a1 83 2f bc ec 30 d4 bd 89 fd fd 3d 56 8d f3 3d
       -0.010712535 -0.103608936 0.124018736 0.11892192
000290 35 e5 03 3d 18 ce 5d 3b 56 82 03 3b a4 dd 61 bd
       0.03220101 0.0033844765 0.00200667 -0.055143014
0002a0 e2 f0 22 3d 82 9f 93 bd c3 48 8f bd 61 ae 82 3d
       0.039780505 -0.07208158 -0.069963 0.063809164
0002b0 d4 df 28 be af 81 09 3e 3d 73 ad bd ae a7 03 3e
       -0.16491634 0.13428377 -0.084692456 0.12856933
0002c0 7d f7 08 bc 74 dd 02 3e d6 89 9f bc d7 99 90 bd
       -0.008359787 0.1277979 -0.019474905 -0.070605926
0002d0 11 a8 1b 3e 48 c7 ac 3d 2a a0 d7 bc 55 39 03 3d
       0.15200831 0.084364474 -0.02632149 0.032037098
0002e0 fe 45 43 3e d2 ae 59 3d f9 b5 2d 3e 3e dd 47 bd
       0.19069669 0.053145237 0.16963948 -0.048794977
0002f0 6e 52 49 3c 40 2e f9 bd 49 a7 75 be b9 89 ea 3c
       0.012287719 -0.121670246 -0.23989595 0.028630124
000300 95 7b 87 bd 1c 02 b3 3d fb 11 1b 3e 8e a0 bb 3d
       -0.06615368 0.08740637 0.15143578 0.09161483
000310 da e6 9a bd c1 2f ca 3d 56 c4 0f be e4 57 ec 3d
       -0.07563563 0.098723896 -0.1403974 0.11540201
000320 aa 4b 32 3d e1 93 eb 3c 4d 20 bf 3d a9 7d 40 bd
       0.04352919 0.028757038 0.09332333 -0.04699484
000330 9d 99 0d bd 0e e2 8a 3d 59 f2 15 bd b0 04 63 3d
       -0.034570325 0.06781398 -0.036608074 0.055424392
000340 9b 75 9c 3d cb f1 c4 3c 9f 35 ec bd 2e 89 dc 3c
       0.07639619 0.024041077 -0.11533665 0.026920881
000350 20 ef 0e be 1d f5 26 be 4e a3 87 be 88 c4 f7 3d
       -0.13958406 -0.16304441 -0.2649178 0.12098032
000360 39 22 32 3d 31 27 6f 3c 2b 0d f7 bd da fc b9 3d
       0.04348967 0.014596746 -0.120630585 0.09081431
000370 9d d5 90 bd 3c 01 0a 3e 2c 9c b4 bd 60 15 a5 bc
       -0.070719935 0.13477033 -0.0881885 -0.020151794
000380 f6 1d d7 3c 58 8a c6 3d d4 e0 33 3d 2a 86 72 3c
       0.026259404 0.09694356 0.043915585 0.014802495
000390 4d 6a 3e bd 05 2b 04 3c e1 5f 23 3e a2 dc 9f bd
       -0.046488095 0.008066897 0.15954544 -0.07805754
0003a0 7f 0f ec bd 3a e5 e4 3c 16 36 b4 bd f2 1e dd 3d
       -0.11526393 0.027941335 -0.087993786 0.10796918
0003b0 ba 96 64 be 50 1f b9 bb db ab f4 3d 8b 63 39 3e
       -0.22323123 -0.0056494847 0.11946841 0.18104379
0003c0 06 6f 71 be 69 7b b7 bd bc c2 c4 bd 4a de 6a be
       -0.23577508 -0.089590855 -0.09607455 -0.22936359
0003d0 41 18 fc 3c a4 d9 54 3d ec 15 c9 bb 62 18 ea 3d
       0.030773284 0.05196537 -0.0061366465 0.11430432
0003e0 93 2d 30 3e 9a 9c 4c bd 6d b4 0e bd d3 43 e1 3d
       0.17204885 -0.049954034 -0.034840036 0.109992646
0003f0 5b f5 8b 3d 82 b3 08 be b3 59 e9 3c 26 c3 2a bd
       0.06833907 -0.13349727 0.028485155 -0.041690014

fc2.bias f4 [84]
000000 8d 54 a8 3e ee 4a 8b 3e 1e d6 c9 bd 48 68 3e 3e
       0.32877007 0.27205604 -0.09855293 0.18594468
000010 c9 8a aa bd 38 a6 e6 bd fd 35 4a 3d be 50 17 3e
       -0.083272524 -0.112621725 0.049367893 0.14776894
000020 04 e6 af bd fa 26 f8 3d 02 9f 89 bd 39 3b 27 3e
       -0.08588794 0.12116809 -0.067197815 0.16331185
000030 12 8b 14 3e 49 71 ca bd 16 71 97 3e b2 ae de 3d
       0.14506176 -0.09884889 0.29578465 0.10873164
000040 d9 ff d5 3e dc e5 d0 bc c5 b6 d3 bc 62 6c 69 3d
       0.4179676 -0.02550023 -0.025843987 0.056988128
000050 ab a1 53 bd 9a c4 07 3e db e6 42 3e 64 7f bb bd
       -0.05166785 0.13258591 0.19033377 -0.09155157
000060 81 0f 09 bd 0f b4 b0 bd 73 82 88 3e 4e 78 0e be
       -0.03346205 -0.086280935 0.26662025 -0.1391308
000070 75 32 ac 3e c2 d9 a0 3c b3 68 0d be c5 29 91 3e
       0.33632246 0.019635085 -0.13809471 0.2835218
000080 f4 e9 4f 3e 07 9d c2 3b 96 8c 52 bd cc 5a ed 3c
       0.2030409 0.0059391293 -0.051403604 0.02897396
000090 4f c2 16 be 32 6e 44 be 33 db 32 3e 5c a5 73 3d
       -0.1472256 -0.19182661 0.1746643 0.05948387
0000a0 38 da c3 bd 74 83 a3 3d 60 1b 60 bc fb f3 51 bd
       -0.09563106 0.07984057 -0.013678402 -0.05125807
0000b0 4d 0a 2e 3d 54 58 cf bd f6 a8 9a 3e 60 99 f9 bd
       0.042490292 -0.10124269 0.30207032 -0.12187457
0000c0 49 fb a2 bd 4c 91 1c be bc 57 ab 3e 56 f9 8d 3e
       -0.07958085 -0.15289801 0.33465374 0.2772929
0000d0 71 f8 6a 3d c6 b6 9b bd 45 10 05 3e b0 b6 5f bd
       0.05736584 -0.07603221 0.12994488 -0.054617584
0000e0 df 32 d4 bd ff d3 44 be 49 a7 26 3e f8 8e 59 be
       -0.103612654 -0.19221495 0.16274752 -0.21245944
0000f0 7f db 98 3e d7 8c 81 3e 55 5b 60 3e 77 fc 58 3e
       0.29854962 0.25302765 0.2190984 0.21190058
000100 36 27 54 3b d7 6f 2e 3e dd 55 b2 3e 7a c9 0d ba
       0.0032372004 0.17034851 0.34831133 -0.00054087455
000110 67 92 01 bd ab 8b 4f 3e f2 de 4c bc b7 2e 58 3e
       -0.03163376 0.20268123 -0.012504326 0.2111157
000120 62 fc 40 bd e7 f2 4c bd 20 5a af 3d c4 a1 3b 3e
       -0.04711569 -0.050036337 0.08562112 0.18323427
000130 15 de a2 3d 38 9e 0d 3d 9f 17 69 3e 29 48 31 3e
       0.07952515 0.034574717 0.22762917 0.17312683
000140 df 49 7b 3d f8 1f eb 3d f7 70 bd 3e 96 85 d0 3d
       0.061349746 0.11480707 0.37000248 0.101817295

fc3.weight f4 [10, 84]
000000 56 d6 4e be 77 7e 81 3e fa 5e 2c bd f2 58 25 bc
       -0.2019895 0.25291798 -0.042082764 -0.010092007
000010 31 6f 16 be 50 83 93 3e 7d 3f eb 3d e9 17 e7 3d
       -0.14690854 0.2881112 0.11486719 0.112838574
000020 9f c9 6d bd c8 b0 96 3c a5 6f 79 bc 99 94 ab be
       -0.05805361 0.018394843 -0.015224372 -0.3351181
000030 d2 2c 56 be 5b de b7 bc a4 71 1e 3e e2 e9 ec 3d
       -0.20915535 -0.022444895 0.15473038 0.11568047
000040 e0 91 17 be bc 6e 13 3c 7e 5b 8b bd 3a ba 7e be
       -0.1480174 0.008998569 -0.0680456 -0.24875727
000050 fb 04 a7 bd aa 9a 5d be d0 8a 83 be fb 0e b7 3d
       -0.08155247 -0.21641031 -0.25691843 0.08938404
000060 f2 e7 87 bd 8c 6b 1f bd f8 ed 08 3e 4d 12 3e be
       -0.06636037 -0.038920924 0.13372028 -0.18561669
000070 d6 02 1e be 37 bb 7a bd 0f c5 ff bd 1a 38 df be
       -0.1543077 -0.0612137 -0.12488758 -0.4359749
000080 6c 79 76 3d dd 64 49 be 3f 3b c8 bd fd 7b fd 3d
       0.06017439 -0.19667383 -0.09776925 0.123771645
000090 0c 49 75 3d 7e af 35 3e c9 fb 09 3e df a1 ac bd
       0.059884116 0.17742726 0.13474955 -0.08429312
0000a0 4e 55 f6 3d 04 9e 18 3e 78 9b 52 3e 93 aa 33 be
       0.12027989 0.14904028 0.20567119 -0.17545538
0000b0 a2 f4 49 3b 3c 79 08 be b3 be 47 be a1 3e bd 3d
       0.0030815979 -0.13327497 -0.1950634 0.09240461
0000c0 c5 04 0c be 2f fb 3b bc 9a 12 cd be d0 c6 59 bd
       -0.13673694 -0.011473461 -0.40053254 -0.053168118
0000d0 29 c7 e7 bd 8e 49 1b be a6 3e 3e be d0 95 01 be
       -0.11317284 -0.15164778 -0.18578586 -0.12654805
0000e0 6a d5 02 be 45 74 0f 3e df 12 ce 3d 25 06 74 3e
       -0.12776724 0.14009197 0.10062193 0.23830469
0000f0 0d 35 1f bc 97 99 11 3e 67 05 fe 3d bd 60 2e 3e
       -0.009717238 0.14218746 0.12403374 0.1702909
000100 b6 00 58 3d d0 40 f9 bd 5d 81 89 be ef 1b 87 bb
       0.052735053 -0.12170565 -0.2685651 -0.004123203
000110 5a d8 86 3d b2 dc ae 3b 6a 8d 00 3e 38 88 2e be
       0.065842345 0.0053363675 0.12553945 -0.17044151
000120 01 ff e5 bc b0 aa 20 be 13 5c 99 bd 21 ff 22 3e
       -0.028075697 -0.15690112 -0.07488265 0.15917636
000130 8a 9c 93 3d a0 67 50 3d d9 9f 8e be 88 99 22 3d
       0.07207592 0.050880075 -0.2785633 0.0396972
000140 9c 79 e6 bc 34 ed 4f bd 60 f6 c8 bd 6e 5c 63 3d
       -0.02813416 -0.050763324 -0.09812617 0.05550807
000150 ac 72 22 be d1 2b 19 be 2b d1 74 3d 98 14 85 3d
       -0.15864056 -0.14958121 0.05976979 0.064980686
000160 6f 5f 11 be 08 9c 03 bd cb 45 06 be 5c 62 78 be
       -0.14196561 -0.032131225 -0.13112561 -0.24256271
000170 a3 55 25 3d ba 9b 05 3e 18 32 06 be 5e 82 42 bd
       0.040364873 0.13047686 -0.13105047 -0.04748761
000180 d9 7d cf bd 8b 91 b0 3d 71 05 ae 3d f7 da 49 3d
       -0.101314254 0.0862151 0.084971316 0.049281087
000190 d3 c2 9e be f3 68 28 3e 61 94 5b bd fc fd d5 bd
       -0.31008014 0.16446285 -0.053608302 -0.10448834
0001a0 05 24 9e bc 1e 2e d5 3d 1d 53 94 be 68 65 07 be
       -0.019304285 0.10409187 -0.2896966 -0.13222277
0001b0 14 49 83 bd 3b 42 8a bd d5 02 19 be 9e 95 93 3e
       -0.06410423 -0.06750914 -0.14942487 0.28825086
0001c0 09 c9 89 bd 43 a2 35 3d 06 9c 28 3e 51 d6 b7 b9
       -0.067277975 0.044344198 0.16465768 -0.00035064158
0001d0 04 bc 20 3e 73 5f 8f bd c4 b7 af bd c3 b0 be be
       0.15696722 -0.07000627 -0.085799724 -0.37244233
0001e0 4c 68 1c bd 3a db 13 bc 48 ad 46 3d 88 2f 17 3e
       -0.038185403 -0.009024436 0.048505098 0.14764225
0001f0 db 38 f2 3d db 72 06 3d 68 db 4d be 21 79 9b bd
       0.118272506 0.03282438 -0.20103228 -0.07591463
000200 db 70 65 3d 65 f0 c5 3d 5d 07 97 3d bb 38 30 3e
       0.05601583 0.09664992 0.07374451 0.17209141
000210 c2 66 65 be ea 0b 70 3d ad fc 0a 3d 3f 27 75 be
       -0.2240248 0.058605112 0.033932377 -0.23940752
000220 38 d0 2b bd 8c 98 3e be e8 70 1f bd 1a a2 2c be
       -0.04194662 -0.1861288 -0.038926035 -0.16858712
000230 75 e7 33 3e 0f b8 f2 3d 79 16 94 be 5a 67 89 bc
       0.17568763 0.11851513 -0.28923395 -0.016772915
000240 38 d8 c2 be 01 11 26 be 87 1b d1 3d 45 31 ba be
       -0.38055587 -0.16217424 0.102103285 -0.36365715
000250 39 5c 68 bd 3d 1f f9 bd 99 17 18 be 29 48 59 3e
       -0.056728575 -0.12164161 -0.14852752 0.21218933
000260 0a a2 62 3a e4 4e 8f 3d ae 5b 1c 3d 38 92 da be
       0.00086453615 0.06997469 0.03817337 -0.4268968
000270 14 bc d7 bc 44 c0 5f 3e f1 4f 50 be 6e 6e 8e bd
       -0.0263348 0.21850687 -0.20342995 -0.069546565
000280 cf 9d 40 be 35 46 00 3e e2 69 fe 3c 9e bc c3 bd
       -0.18810199 0.12526782 0.031056348 -0.0955746
000290 87 70 7f bd 3a 44 1d 3e 43 c6 98 be ec eb 03 be
       -0.062363174 0.15358058 -0.29838762 -0.12882966
0002a0 37 e0 c6 bd 1a af de 3c 28 df 54 bd 24 ce 33 be
       -0.09710734 0.027183104 -0.05197063 -0.17559105
0002b0 82 86 90 bd fc 9f 22 3e f9 95 cd bd 30 2c d1 3d
       -0.07056905 0.15881342 -0.10038371 0.10213506
0002c0 b2 3a ec bd 27 86 b2 3d 3b 40 21 3e d1 13 bd bd
       -0.11534633 0.08716994 0.15747158 -0.09232295
0002d0 87 c1 76 bd f2 52 cd bc 0b 17 ae bc 00 b4 81 3c
       -0.060243156 -0.025063965 -0.021251222 0.015832901
0002e0 e6 d2 ad bc b4 95 14 3b 2e 9c 53 3d b0 64 0f 3e
       -0.021218728 0.0022672238 0.051662616 0.14003253
0002f0 62 11 bb 3d cc 8f e2 bd cc 54 a0 3c a0 39 6e 3d
       0.09134175 -0.11062583 0.019571684 0.058160424
000300 50 ea 12 be 91 0f 0b bd 38 98 8b be 18 86 39 3e
       -0.14347196 -0.033950392 -0.2726457 0.18117559
000310 4c f0 62 3c 54 9b 91 be 61 b1 ae bd 8c a4 cc 3d
       0.013851237 -0.28438818 -0.08529926 0.09992322
000320 99 df 82 be 09 2d 89 bc 2a ae 2c be 98 9b 8d 3e
       -0.25561216 -0.016745107 -0.16863313 0.2765777
000330 55 8f e4 3c 43 be af bc 89 85 59 be 31 e5 c5 bd
       0.027900377 -0.021453029 -0.21242346 -0.096628554
000340 0d e3 35 be 2d d7 89 3d ac 9d fe bd e2 e7 12 bd
       -0.17762394 0.06730495 -0.12432417 -0.035865672
000350 d9 3a 42 3e c6 4d 35 be 0b 91 ef bd db f4 29 be
       0.18967761 -0.1770545 -0.116975866 -0.16597311
000360 54 50 83 3e fa 0a 9b bc 99 51 d7 3d 14 be 3a 3d
       0.25647223 -0.018926132 0.105136104 0.04559143
000370 d4 81 1e 3e f0 2a 85 be 67 c5 15 be dc df 0f 3e
       0.15479213 -0.2600932 -0.14626084 0.1405024
000380 bf 42 e7 bc 18 02 c2 bd 89 d0 37 be 42 23 d4 3d
       -0.02823007 -0.094730556 -0.17950644 0.103582874
000390 ce c8 44 bd 84 0d 75 3e 12 38 f7 3d 01 b8 04 3e
       -0.048043065 0.23930937 0.120712414 0.12960817
0003a0 37 6e 2b bc ae 03 b3 bd 76 ed 8b bd f5 40 2d be
       -0.010463289 -0.08740936 -0.068324015 -0.1691931
0003b0 fe b0 2c 3e 50 04 4b bd d1 24 1e be a7 42 03 3e
       0.16864392 -0.04956466 -0.15443732 0.12818395
0003c0 d1 69 88 3c 80 da f7 3d 2e b0 8b 3d 52 d5 c1 bd
       0.01665202 0.121022224 0.06820713 -0.09464516
0003d0 6e d7 44 3c ba 27 5d be 61 aa 50 3d 05 1a 43 3e
       0.012014253 -0.21597186 0.050943736 0.19052894
0003e0 7d 8f d9 bd d6 7b bf 3b 79 c6 7c 3d e6 c8 43 be
       -0.10623071 0.00584362 0.061712716 -0.19119605
0003f0 71 71 71 3d 93 df 64 be 00 1a c9 3d 54 f6 45 bd
       0.058946077 -0.22350912 0.09819412 -0.04833062

fc3.bias f4 [10]
000000 ad 48 d2 bc 2f 2a 7c be c0 55 78 3d 62 cb 4b 3e
       -0.02566942 -0.24625467 0.060628653 0.19901803
000010 50 0f 8a 3e 56 da 2d be 82 26 7f bd 5d 62 df bc
       0.26964808 -0.1697782 -0.062292583 -0.027268583
000020 54 cb 25 3d ab 9e 0b 3d
       0.040477112 0.034086864
